…
, affine=True, track_running_stats=True), nn.Dropout(p=0.25, inplace=False), nn.Linear(in_features=4096, out_features=512, bias=True), nn.ReLU(inplace=True), nn.BatchNorm1d(512, eps=1e-05, momentum=0.1, affine=True, track_running_stats=True), nn.Dropout(p=0.5, inplace=False), nn.Linear(in_features=512, out_features=397, bias=True), ) # Initialze Classification Layers with Kaiming Normal self.tail.apply(init_weights) def forward(self, x): x = self.head(x) x = self.pooling(x) x = self.tail(x) return x . Initialize the Model . mm = SUNClassifier(model) . mm . SUNClassifier( (head): Sequential( (0): Conv2d(3, 64, kernel_size=(7, 7), stride=(2, 2), padding=(3, 3), bias=False) (1): BatchNorm2d(64, eps=1e-05, momentum=0.1, affine=True, track_running_stats=True) (2): ReLU(inplace=True) (3): MaxPool2d(kernel_size=3, stride=2, padding=1, dilation=1, ceil_mode=False) (4): Sequential( (0): Bottleneck( (conv1): Conv2d(64, 64, kernel_size=(1, 1), stride=(1, 1), bias=False) (bn1): BatchNorm2d(64, eps=1e-05, momentum=0.1, affine=True, track_running_stats=True) (conv2): Conv2d(64, 64, kernel_size=(3, 3), stride=(1, 1), padding=(1, 1), bias=False) (bn2): BatchNorm2d(64, eps=1e-05, momentum=0.1, affine=True, track_running_stats=True) (conv3): Conv2d(64, 256, kernel_size=(1, 1), stride=(1, 1), bias=False) (bn3): BatchNorm2d(256, eps=1e-05, momentum=0.1, affine=True, track_running_stats=True) (relu): ReLU(inplace=True) (downsample): Sequential( (0): Conv2d(64, 256, kernel_size=(1, 1), stride=(1, 1), bias=False) (1): BatchNorm2d(256, eps=1e-05, momentum=0.1, affine=True, track_running_stats=True) ) ) (1): Bottleneck( (conv1): Conv2d(256, 64, kernel_size=(1, 1), stride=(1, 1), bias=False) (bn1): BatchNorm2d(64, eps=1e-05, momentum=0.1, affine=True, track_running_stats=True) (conv2): Conv2d(64, 64, kernel_size=(3, 3), stride=(1, 1), padding=(1, 1), bias=False) (bn2): BatchNorm2d(64, eps=1e-05, momentum=0.1, affine=True, track_running_stats=True) (conv3): Conv2d(64, 256, kernel_size=(1, 1), stride=(1, 1), bias=False) (bn3): BatchNorm2d(256, eps=1e-05, momentum=0.1, affine=True, track_running_stats=True) (relu): ReLU(inplace=True) ) (2): Bottleneck( (conv1): Conv2d(256, 64, kernel_size=(1, 1), stride=(1, 1), bias=False) (bn1): BatchNorm2d(64, eps=1e-05, momentum=0.1, affine=True, track_running_stats=True) (conv2): Conv2d(64, 64, kernel_size=(3, 3), stride=(1, 1), padding=(1, 1), bias=False) (bn2): BatchNorm2d(64, eps=1e-05, momentum=0.1, affine=True, track_running_stats=True) (conv3): Conv2d(64, 256, kernel_size=(1, 1), stride=(1, 1), bias=False) (bn3): BatchNorm2d(256, eps=1e-05, momentum=0.1, affine=True, track_running_stats=True) (relu): ReLU(inplace=True) ) ) (5): Sequential( (0): Bottleneck( (conv1): Conv2d(256, 128, kernel_size=(1, 1), stride=(1, 1), bias=False) (bn1): BatchNorm2d(128, eps=1e-05, momentum=0.1, affine=True, track_running_stats=True) (conv2): Conv2d(128, 128, kernel_size=(3, 3), stride=(2, 2), padding=(1, 1), bias=False) (bn2): BatchNorm2d(128, eps=1e-05, momentum=0.1, affine=True, track_running_stats=True) (conv3): Conv2d(128, 512, kernel_size=(1, 1), stride=(1, 1), bias=False) (bn3): BatchNorm2d(512, eps=1e-05, momentum=0.1, affine=True, track_running_stats=True) (relu): ReLU(inplace=True) (downsample): Sequential( (0): Conv2d(256, 512, kernel_size=(1, 1), stride=(2, 2), bias=False) (1): BatchNorm2d(512, eps=1e-05, momentum=0.1, affine=True, track_running_stats=True) ) ) (1): Bottleneck( (conv1): Conv2d(512, 128, kernel_size=(1, 1), stride=(1, 1), bias=False) (bn1): BatchNorm2d(128, eps=1e-05, momentum=0.1, affine=True, track_running_stats=True) (conv2): Conv2d(128, 128, kernel_size=(3, 3), stride=(1, 1), padding=(1, 1), bias=False) (bn2): BatchNorm2d(128, eps=1e-05, momentum=0.1, affine=True, track_running_stats=True) (conv3): Conv2d(128, 512, kernel_size=(1, 1), stride=(1, 1), bias=False) (bn3): BatchNorm2d(512, eps=1e-05, momentum=0.1, affine=True, track_running_stats=True) (relu): ReLU(inplace=True) ) (2): Bottleneck( (conv1): Conv2d(512, 128, kernel_size=(1, 1), stride=(1, 1), bias=False) (bn1): BatchNorm2d(128, eps=1e-05, momentum=0.1, affine=True, track_running_stats=True) (conv2): Conv2d(128, 128, kernel_size=(3, 3), stride=(1, 1), padding=(1, 1), bias=False) (bn2): BatchNorm2d(128, eps=1e-05, momentum=0.1, affine=True, track_running_stats=True) (conv3): Conv2d(128, 512, kernel_size=(1, 1), stride=(1, 1), bias=False) (bn3): BatchNorm2d(512, eps=1e-05, momentum=0.1, affine=True, track_running_stats=True) (relu): ReLU(inplace=True) ) (3): Bottleneck( (conv1): Conv2d(512, 128, kernel_size=(1, 1), stride=(1, 1), bias=False) (bn1): BatchNorm2d(128, eps=1e-05, momentum=0.1, affine=True, track_running_stats=True) (conv2): Conv2d(128, 128, kernel_size=(3, 3), stride=(1, 1), padding=(1, 1), bias=False) (bn2): BatchNorm2d(128, eps=1e-05, momentum=0.1, affine=True, track_running_stats=True) (conv3): Conv2d(128, 512, kernel_size=(1, 1), stride=(1, 1), bias=False) (bn3): BatchNorm2d(512, eps=1e-05, momentum=0.1, affine=True, track_running_stats=True) (relu): ReLU(inplace=True) ) ) (6): Sequential( (0): Bottleneck( (conv1): Conv2d(512, 256, kernel_size=(1, 1), stride=(1, 1), bias=False) (bn1): BatchNorm2d(256, eps=1e-05, momentum=0.1, affine=True, track_running_stats=True) (conv2): Conv2d(256, 256, kernel_size=(3, 3), stride=(2, 2), padding=(1, 1), bias=False) (bn2): BatchNorm2d(256, eps=1e-05, momentum=0.1, affine=True, track_running_stats=True) (conv3): Conv2d(256, 1024, kernel_size=(1, 1), stride=(1, 1), bias=False) (bn3): BatchNorm2d(1024, eps=1e-05, momentum=0.1, affine=True, track_running_stats=True) (relu): ReLU(inplace=True) (downsample): Sequential( (0): Conv2d(512, 1024, kernel_size=(1, 1), stride=(2, 2), bias=False) (1): BatchNorm2d(1024, eps=1e-05, momentum=0.1, affine=True, track_running_stats=True) ) ) (1): Bottleneck( (conv1): Conv2d(1024, 256, kernel_size=(1, 1), stride=(1, 1), bias=False) (bn1): BatchNorm2d(256, eps=1e-05, momentum=0.1, affine=True, track_running_stats=True) (conv2): Conv2d(256, 256, kernel_size=(3, 3), stride=(1, 1), padding=(1, 1), bias=False) (bn2): BatchNorm2d(256, eps=1e-05, momentum=0.1, affine=True, track_running_stats=True) (conv3): Conv2d(256, 1024, kernel_size=(1, 1), stride=(1, 1), bias=False) (bn3): BatchNorm2d(1024, eps=1e-05, momentum=0.1, affine=True, track_running_stats=True) (relu): ReLU(inplace=True) ) (2): Bottleneck( (conv1): Conv2d(1024, 256, kernel_size=(1, 1), stride=(1, 1), bias=False) (bn1): BatchNorm2d(256, eps=1e-05, momentum=0.1, affine=True, track_running_stats=True) (conv2): Conv2d(256, 256, kernel_size=(3, 3), stride=(1, 1), padding=(1, 1), bias=False) (bn2): BatchNorm2d(256, eps=1e-05, momentum=0.1, affine=True, track_running_stats=True) (conv3): Conv2d(256, 1024, kernel_size=(1, 1), stride=(1, 1), bias=False) (bn3): BatchNorm2d(1024, eps=1e-05, momentum=0.1, affine=True, track_running_stats=True) (relu): ReLU(inplace=True) ) (3): Bottleneck( (conv1): Conv2d(1024, 256, kernel_size=(1, 1), stride=(1, 1), bias=False) (bn1): BatchNorm2d(256, eps=1e-05, momentum=0.1, affine=True, track_running_stats=True) (conv2): Conv2d(256, 256, kernel_size=(3, 3), stride=(1, 1), padding=(1, 1), bias=False) (bn2): BatchNorm2d(256, eps=1e-05, momentum=0.1, affine=True, track_running_stats=True) (conv3): Conv2d(256, 1024, kernel_size=(1, 1), stride=(1, 1), bias=False) (bn3): BatchNorm2d(1024, eps=1e-05, momentum=0.1, affine=True, track_running_stats=True) (relu): ReLU(inplace=True) ) (4): Bottleneck( (conv1): Conv2d(1024, 256, kernel_size=(1, 1), stride=(1, 1), bias=False) (bn1): BatchNorm2d(256, eps=1e-05, momentum=0.1, affine=True, track_running_stats=True) (conv2): Conv2d(256, 256, kernel_size=(3, 3), stride=(1, 1), padding=(1, 1), bias=False) (bn2): BatchNorm2d(256, eps=1e-05, momentum=0.1, affine=True, track_running_stats=True) (conv3): Conv2d(256, 1024, kernel_size=(1, 1), stride=(1, 1), bias=False) (bn3): BatchNorm2d(1024, eps=1e-05, momentum=0.1, affine=True, track_running_stats=True) (relu): ReLU(inplace=True) ) (5): Bottleneck( (conv1): Conv2d(1024, 256, kernel_size=(1, 1), stride=(1, 1), bias=False) (bn1): BatchNorm2d(256, eps=1e-05, momentum=0.1, affine=True, track_running_stats=True) (conv2): Conv2d(256, 256, kernel_size=(3, 3), stride=(1, 1), padding=(1, 1), bias=False) (bn2): BatchNorm2d(256, eps=1e-05, momentum=0.1, affine=True, track_running_stats=True) (conv3): Conv2d(256, 1024, kernel_size=(1, 1), stride=(1, 1), bias=False) (bn3): BatchNorm2d(1024, eps=1e-05, momentum=0.1, affine=True, track_running_stats=True) (relu): ReLU(inplace=True) ) ) (7): Sequential( (0): Bottleneck( (conv1): Conv2d(1024, 512, kernel_size=(1, 1), stride=(1, 1), bias=False) (bn1): BatchNorm2d(512, eps=1e-05, momentum=0.1, affine=True, track_running_stats=True) (conv2): Conv2d(512, 512, kernel_size=(3, 3), stride=(2, 2), padding=(1, 1), bias=False) (bn2): BatchNorm2d(512, eps=1e-05, momentum=0.1, affine=True, track_running_stats=True) (conv3): Conv2d(512, 2048, kernel_size=(1, 1), stride=(1, 1), bias=False) (bn3): BatchNorm2d(2048, eps=1e-05, momentum=0.1, affine=True, track_running_stats=True) (relu): ReLU(inplace=True) (downsample): Sequential( (0): Conv2d(1024, 2048, kernel_size=(1, 1), stride=(2, 2), bias=False) (1): BatchNorm2d(2048, eps=1e-05, momentum=0.1, affine=True, track_running_stats=True) ) ) (1): Bottleneck( (conv1): Conv2d(2048, 512, kernel_size=(1, 1), stride=(1, 1), bias=False) (bn1): BatchNorm2d(512, eps=1e-05, momentum=0.1, affine=True, track_running_stats=True) (conv2): Conv2d(512, 512, kernel_size=(3, 3), stride=(1, 1), padding=(1, 1), bias=False) (bn2): BatchNorm2d(512, eps=1e-05, momentum=0.1, affine=True, track_running_stats=True) (conv3): Conv2d(512, 2048, kernel_size=(1, 1), stride=(1, 1), bias=False) (bn3): BatchNorm2d(2048, eps=1e-05, momentum=0.1, affine=True, track_running_stats=True) (relu): ReLU(inplace=True) ) (2): Bottleneck( (conv1): Conv2d(2048, 512, kernel_size=(1, 1), stride=(1, 1), bias=False) (bn1): BatchNorm2d(512, eps=1e-05, momentum=0.1, affine=True, track_running_stats=True) (conv2): Conv2d(512, 512, kernel_size=(3, 3), stride=(1, 1), padding=(1, 1), bias=False) (bn2): BatchNorm2d(512, eps=1e-05, momentum=0.1, affine=True, track_running_stats=True) (conv3): Conv2d(512, 2048, kernel_size=(1, 1), stride=(1, 1), bias=False) (bn3): BatchNorm2d(2048, eps=1e-05, momentum=0.1, affine=True, track_running_stats=True) (relu): ReLU(inplace=True) ) ) ) (pooling): Sequential( (0): AdaptiveConcatPool2d( (ap): AdaptiveAvgPool2d(output_size=(1, 1)) (mp): AdaptiveMaxPool2d(output_size=(1, 1)) ) (1): Flatten() ) (tail): Sequential( (0): BatchNorm1d(4096, eps=1e-05, momentum=0.1, affine=True, track_running_stats=True) (1): Dropout(p=0.25, inplace=False) (2): Linear(in_features=4096, out_features=512, bias=True) (3): ReLU(inplace=True) (4): BatchNorm1d(512, eps=1e-05, momentum=0.1, affine=True, track_running_stats=True) (5): Dropout(p=0.5, inplace=False) (6): Linear(in_features=512, out_features=397, bias=True) ) ) . Loading Dataset . For the results of this experiment we have chosen at random one of the available ten training and testing partitions provided by the authors of the dataset. The randomly chosen partition is the fifth partition which has two files namely: Training_05.txt and Testing_05.txt. Each of these files contains 19850(50x397) image paths w
…
run2.pt&#39;) . learner.save(&#39;resnet50-place-run2&#39;) . learner.load(&#39;resnet50-place-run2&#39;) . Learner(data=ImageDataBunch; Train: LabelList (19850 items) x: ImageList Image (3, 224, 224),Image (3, 224, 224),Image (3, 224, 224),Image (3, 224, 224),Image (3, 224, 224) y: CategoryList abbey,abbey,abbey,abbey,abbey Path: SUN397; Valid: LabelList (19850 items) x: ImageList Image (3, 224, 224),Image (3, 224, 224),Image (3, 224, 224),Image (3, 224, 224),Image (3, 224, 224) y: CategoryList abbey,abbey,abbey,abbey,abbey Path: SUN397; Test: None, model=SUNClassifier( (head): Sequential( (0): Conv2d(3, 64, kernel_size=(7, 7), stride=(2, 2), padding=(3, 3), bias=False) (1): BatchNorm2d(64, eps=1e-05, momentum=0.1, affine=True, track_running_stats=True) (2): ReLU(inplace=True) (3): MaxPool2d(kernel_size=3, stride=2, padding=1, dilation=1, ceil_mode=False) (4): Sequential( (0): Bottleneck( (conv1): Conv2d(64, 64, kernel_size=(1, 1), stride=(1, 1), bias=False) (bn1): BatchNorm2d(64, eps=1e-05, momentum=0.1, affine=True, track_running_stats=True) (conv2): Conv2d(64, 64, kernel_size=(3, 3), stride=(1, 1), padding=(1, 1), bias=False) (bn2): BatchNorm2d(64, eps=1e-05, momentum=0.1, affine=True, track_running_stats=True) (conv3): Conv2d(64, 256, kernel_size=(1, 1), stride=(1, 1), bias=False) (bn3): BatchNorm2d(256, eps=1e-05, momentum=0.1, affine=True, track_running_stats=True) (relu): ReLU(inplace=True) (downsample): Sequential( (0): Conv2d(64, 256, kernel_size=(1, 1), stride=(1, 1), bias=False) (1): BatchNorm2d(256, eps=1e-05, momentum=0.1, affine=True, track_running_stats=True) ) ) (1): Bottleneck( (conv1): Conv2d(256, 64, kernel_size=(1, 1), stride=(1, 1), bias=False) (bn1): BatchNorm2d(64, eps=1e-05, momentum=0.1, affine=True, track_running_stats=True) (conv2): Conv2d(64, 64, kernel_size=(3, 3), stride=(1, 1), padding=(1, 1), bias=False) (bn2): BatchNorm2d(64, eps=1e-05, momentum=0.1, affine=True, track_running_stats=True) (conv3): Conv2d(64, 256, kernel_size=(1, 1), stride=(1, 1), bias=False) (bn3): BatchNorm2d(256, eps=1e-05, momentum=0.1, affine=True, track_running_stats=True) (relu): ReLU(inplace=True) ) (2): Bottleneck( (conv1): Conv2d(256, 64, kernel_size=(1, 1), stride=(1, 1), bias=False) (bn1): BatchNorm2d(64, eps=1e-05, momentum=0.1, affine=True, track_running_stats=True) (conv2): Conv2d(64, 64, kernel_size=(3, 3), stride=(1, 1), padding=(1, 1), bias=False) (bn2): BatchNorm2d(64, eps=1e-05, momentum=0.1, affine=True, track_running_stats=True) (conv3): Conv2d(64, 256, kernel_size=(1, 1), stride=(1, 1), bias=False) (bn3): BatchNorm2d(256, eps=1e-05, momentum=0.1, affine=True, track_running_stats=True) (relu): ReLU(inplace=True) ) ) (5): Sequential( (0): Bottleneck( (conv1): Conv2d(256, 128, kernel_size=(1, 1), stride=(1, 1), bias=False) (bn1): BatchNorm2d(128, eps=1e-05, momentum=0.1, affine=True, track_running_stats=True) (conv2): Conv2d(128, 128, kernel_size=(3, 3), stride=(2, 2), padding=(1, 1), bias=False) (bn2): BatchNorm2d(128, eps=1e-05, momentum=0.1, affine=True, track_running_stats=True) (conv3): Conv2d(128, 512, kernel_size=(1, 1), stride=(1, 1), bias=False) (bn3): BatchNorm2d(512, eps=1e-05, momentum=0.1, affine=True, track_running_stats=True) (relu): ReLU(inplace=True) (downsample): Sequential( (0): Conv2d(256, 512, kernel_size=(1, 1), stride=(2, 2), bias=False) (1): BatchNorm2d(512, eps=1e-05, momentum=0.1, affine=True, track_running_stats=True) ) ) (1): Bottleneck( (conv1): Conv2d(512, 128, kernel_size=(1, 1), stride=(1, 1), bias=False) (bn1): BatchNorm2d(128, eps=1e-05, momentum=0.1, affine=True, track_running_stats=True) (conv2): Conv2d(128, 128, kernel_size=(3, 3), stride=(1, 1), padding=(1, 1), bias=False) (bn2): BatchNorm2d(128, eps=1e-05, momentum=0.1, affine=True, track_running_stats=True) (conv3): Conv2d(128, 512, kernel_size=(1, 1), stride=(1, 1), bias=False) (bn3): BatchNorm2d(512, eps=1e-05, momentum=0.1, affine=True, track_running_stats=True) (relu): ReLU(inplace=True) ) (2): Bottleneck( (conv1): Conv2d(512, 128, kernel_size=(1, 1), stride=(1, 1), bias=False) (bn1): BatchNorm2d(128, eps=1e-05, momentum=0.1, affine=True, track_running_stats=True) (conv2): Conv2d(128, 128, kernel_size=(3, 3), stride=(1, 1), padding=(1, 1), bias=False) (bn2): BatchNorm2d(128, eps=1e-05, momentum=0.1, affine=True, track_running_stats=True) (conv3): Conv2d(128, 512, kernel_size=(1, 1), stride=(1, 1), bias=False) (bn3): BatchNorm2d(512, eps=1e-05, momentum=0.1, affine=True, track_running_stats=True) (relu): ReLU(inplace=True) ) (3): Bottleneck( (conv1): Conv2d(512, 128, kernel_size=(1, 1), stride=(1, 1), bias=False) (bn1): BatchNorm2d(128, eps=1e-05, momentum=0.1, affine=True, track_running_stats=True) (conv2): Conv2d(128, 128, kernel_size=(3, 3), stride=(1, 1), padding=(1, 1), bias=False) (bn2): BatchNorm2d(128, eps=1e-05, momentum=0.1, affine=True, track_running_stats=True) (conv3): Conv2d(128, 512, kernel_size=(1, 1), stride=(1, 1), bias=False) (bn3): BatchNorm2d(512, eps=1e-05, momentum=0.1, affine=True, track_running_stats=True) (relu): ReLU(inplace=True) ) ) (6): Sequential( (0): Bottleneck( (conv1): Conv2d(512, 256, kernel_size=(1, 1), stride=(1, 1), bias=False) (bn1): BatchNorm2d(256, eps=1e-05, momentum=0.1, affine=True, track_running_stats=True) (conv2): Conv2d(256, 256, kernel_size=(3, 3), stride=(2, 2), padding=(1, 1), bias=False) (bn2): BatchNorm2d(256, eps=1e-05, momentum=0.1, affine=True, track_running_stats=True) (conv3): Conv2d(256, 1024, kernel_size=(1, 1), stride=(1, 1), bias=False) (bn3): BatchNorm2d(1024, eps=1e-05, momentum=0.1, affine=True, track_running_stats=True) (relu): ReLU(inplace=True) (downsample): Sequential( (0): Conv2d(512, 1024, kernel_size=(1, 1), stride=(2, 2), bias=False) (1): BatchNorm2d(1024, eps=1e-05, momentum=0.1, affine=True, track_running_stats=True) ) ) (1): Bottleneck( (conv1): Conv2d(1024, 256, kernel_size=(1, 1), stride=(1, 1), bias=False) (bn1): BatchNorm2d(256, eps=1e-05, momentum=0.1, affine=True, track_running_stats=True) (conv2): Conv2d(256, 256, kernel_size=(3, 3), stride=(1, 1), padding=(1, 1), bias=False) (bn2): BatchNorm2d(256, eps=1e-05, momentum=0.1, affine=True, track_running_stats=True) (conv3): Conv2d(256, 1024, kernel_size=(1, 1), stride=(1, 1), bias=False) (bn3): BatchNorm2d(1024, eps=1e-05, momentum=0.1, affine=True, track_running_stats=True) (relu): ReLU(inplace=True) ) (2): Bottleneck( (conv1): Conv2d(1024, 256, kernel_size=(1, 1), stride=(1, 1), bias=False) (bn1): BatchNorm2d(256, eps=1e-05, momentum=0.1, affine=True, track_running_stats=True) (conv2): Conv2d(256, 256, kernel_size=(3, 3), stride=(1, 1), padding=(1, 1), bias=False) (bn2): BatchNorm2d(256, eps=1e-05, momentum=0.1, affine=True, track_running_stats=True) (conv3): Conv2d(256, 1024, kernel_size=(1, 1), stride=(1, 1), bias=False) (bn3): BatchNorm2d(1024, eps=1e-05, momentum=0.1, affine=True, track_running_stats=True) (relu): ReLU(inplace=True) ) (3): Bottleneck( (conv1): Conv2d(1024, 256, kernel_size=(1, 1), stride=(1, 1), bias=False) (bn1): BatchNorm2d(256, eps=1e-05, momentum=0.1, affine=True, track_running_stats=True) (conv2): Conv2d(256, 256, kernel_size=(3, 3), stride=(1, 1), padding=(1, 1), bias=False) (bn2): BatchNorm2d(256, eps=1e-05, momentum=0.1, affine=True, track_running_stats=True) (conv3): Conv2d(256, 1024, kernel_size=(1, 1), stride=(1, 1), bias=False) (bn3): BatchNorm2d(1024, eps=1e-05, momentum=0.1, affine=True, track_running_stats=True) (relu): ReLU(inplace=True) ) (4): Bottleneck( (conv1): Conv2d(1024, 256, kernel_size=(1, 1), stride=(1, 1), bias=False) (bn1): BatchNorm2d(256, eps=1e-05, momentum=0.1, affine=True, track_running_stats=True) (conv2): Conv2d(256, 256, kernel_size=(3, 3), stride=(1, 1), padding=(1, 1), bias=False) (bn2): BatchNorm2d(256, eps=1e-05, momentum=0.1, affine=True, track_running_stats=True) (conv3): Conv2d(256, 1024, kernel_size=(1, 1), stride=(1, 1), bias=False) (bn3): BatchNorm2d(1024, eps=1e-05, momentum=0.1, affine=True, track_running_stats=True) (relu): ReLU(inplace=True) ) (5): Bottleneck( (conv1): Conv2d(1024, 256, kernel_size=(1, 1), stride=(1, 1), bias=False) (bn1): BatchNorm2d(256, eps=1e-05, momentum=0.1, affine=True, track_running_stats=True) (conv2): Conv2d(256, 256, kernel_size=(3, 3), stride=(1, 1), padding=(1, 1), bias=False) (bn2): BatchNorm2d(256, eps=1e-05, momentum=0.1, affine=True, track_running_stats=True) (conv3): Conv2d(256, 1024, kernel_size=(1, 1), stride=(1, 1), bias=False) (bn3): BatchNorm2d(1024, eps=1e-05, momentum=0.1, affine=True, track_running_stats=True) (relu): ReLU(inplace=True) ) ) (7): Sequential( (0): Bottleneck( (conv1): Conv2d(1024, 512, kernel_size=(1, 1), stride=(1, 1), bias=False) (bn1): BatchNorm2d(512, eps=1e-05, momentum=0.1, affine=True, track_running_stats=True) (conv2): Conv2d(512, 512, kernel_size=(3, 3), stride=(2, 2), padding=(1, 1), bias=False) (bn2): BatchNorm2d(512, eps=1e-05, momentum=0.1, affine=True, track_running_stats=True) (conv3): Conv2d(512, 2048, kernel_size=(1, 1), stride=(1, 1), bias=False) (bn3): BatchNorm2d(2048, eps=1e-05, momentum=0.1, affine=True, track_running_stats=True) (relu): ReLU(inplace=True) (downsample): Sequential( (0): Conv2d(1024, 2048, kernel_size=(1, 1), stride=(2, 2), bias=False) (1): BatchNorm2d(2048, eps=1e-05, momentum=0.1, affine=True, track_running_stats=True) ) ) (1): Bottleneck( (conv1): Conv2d(2048, 512, kernel_size=(1, 1), stride=(1, 1), bias=False) (bn1): BatchNorm2d(512, eps=1e-05, momentum=0.1, affine=True, track_running_stats=True) (conv2): Conv2d(512, 512, kernel_size=(3, 3), stride=(1, 1), padding=(1, 1), bias=False) (bn2): BatchNorm2d(512, eps=1e-05, momentum=0.1, affine=True, track_running_stats=True) (conv3): Conv2d(512, 2048, kernel_size=(1, 1), stride=(1, 1), bias=False) (bn3): BatchNorm2d(2048, eps=1e-05, momentum=0.1, affine=True, track_running_stats=True) (relu): ReLU(inplace=True) ) (2): Bottleneck( (conv1): Conv2d(2048, 512, kernel_size=(1, 1), stride=(1, 1), bias=False) (bn1): BatchNorm2d(512, eps=1e-05, momentum=0.1, affine=True, track_running_stats=True) (conv2): Conv2d(512, 512, kernel_size=(3, 3), stride=(1, 1), padding=(1, 1), bias=False) (bn2): BatchNorm2d(512, eps=1e-05, momentum=0.1, affine=True, track_running_stats=True) (conv3): Conv2d(512, 2048, kernel_size=(1, 1), stride=(1, 1), bias=False) (bn3): BatchNorm2d(2048, eps=1e-05, momentum=0.1, affine=True, track_running_stats=True) (relu): ReLU(inplace=True) ) ) ) (pooling): Sequential( (0): AdaptiveConcatPool2d( (ap): AdaptiveAvgPool2d(output_size=(1, 1)) (mp): AdaptiveMaxPool2d(output_size=(1, 1)) ) (1): Flatten() ) (tail): Sequential( (0): BatchNorm1d(4096, eps=1e-05, momentum=0.1, affine=True, track_running_stats=True) (1): Dropout(p=0.25, inplace=False) (2): Linear(in_features=4096, out_features=512, bias=True) (3): ReLU(inplace=True) (4): BatchNorm1d(512, eps=1e-05, momentum=0.1, affine=True, track_running_stats=True) (5): Dropout(p=0.5, inplace=False) (6): Linear(in_features=512, out_features=397, bias=True) ) ), opt_func=functools.partial(&lt;class &#39;torch.optim.adam.Adam&#39;&gt;, betas=(0.9, 0.99)), loss_func=FlattenedLoss of CrossEntropyLoss(), metrics=[&lt;function accuracy at 0x7f9fd2124320&gt;, &lt;function error_rate at 0x7f9fc814c560&gt;], true_wd=True, bn_wd=True, wd=0.01, train_bn=True, path=PosixPath(&#39;SUN397&#39;), model_dir=&#39;models&#39;, callback_fns=[functools.partial(&lt;class &#39;fastai.basic_train.Recorder&#39;&gt;, add_time=True, silent=False), functools.partial(&lt;class &#39;fastai.callbacks.csv_logger.CSVLogger&#39;&gt;, append=True)], callbacks=[], layer_groups=[Sequential( (0): Conv2d(3, 64, kernel_size=(7, 7), stride=(2, 2), padding=(3, 3), bias=False) (1): BatchNorm2d(64, eps=1e-05, momentum=0.1, affine=True, track_running_stats=True) (2): ReLU(inplace=True) (3): MaxPool2d(kernel_size=3, stride=2, padding=1, dilation=1, ceil_mode=False) (4): Conv2d(64, 64, kernel_size=(1, 1), stride=(1, 1), bias=False) (5): BatchNorm2d(64, eps=1e-05, momentum=0.1, affine=True, track_running_stats=True) (6): Conv2d(64, 64, kernel_size=(3, 3), stride=(1, 1), padding=(1, 1), bias=False) (7): BatchNorm2d(64, eps=1e-05, momentum=0.1, affine=True, track_running_stats=True) (8): Conv2d(64, 256, kernel_size=(1, 1), stride=(1, 1), bias=False) (9): BatchNorm2d(256, eps=1e-05, momentum=0.1, affine=True, track_running_stats=True) (10): ReLU(inplace=True) (11): Conv2d(64, 256, kernel_size=(1, 1), stride=(1, 1), bias=False) (12): BatchNorm2d(256, eps=1e-05, momentum=0.1, affine=True, track_running_stats=True) (13): Conv2d(256, 64, kernel_size=(1, 1), stride=(1, 1), bias=False) (14): BatchNorm2d(64, eps=1e-05, momentum=0.1, affine=True, track_running_stats=True) (15): Conv2d(64, 64, kernel_size=(3, 3), stride=(1, 1), padding=(1, 1), bias=False) (16): BatchNorm2d(64, eps=1e-05, momentum=0.1, affine=True, track_running_stats=True) (17): Conv2d(64, 256, kernel_size=(1, 1), stride=(1, 1), bias=False) (18): BatchNorm2d(256, eps=1e-05, momentum=0.1, affine=True, track_running_stats=True) (19): ReLU(inplace=True) (20): Conv2d(256, 64, kernel_size=(1, 1), stride=(1, 1), bias=False) (21): BatchNorm2d(64, eps=1e-05, momentum=0.1, affine=True, track_running_stats=True) (22): Conv2d(64, 64, kernel_size=(3, 3), stride=(1, 1), padding=(1, 1), bias=False) (23): BatchNorm2d(64, eps=1e-05, momentum=0.1, affine=True, track_running_stats=True) (24): Conv2d(64, 256, kernel_size=(1, 1), stride=(1, 1), bias=False) (25): BatchNorm2d(256, eps=1e-05, momentum=0.1, affine=True, track_running_stats=True) (26): ReLU(inplace=True) (27): Conv2d(256, 128, kernel_size=(1, 1), stride=(1, 1), bias=False) (28): BatchNorm2d(128, eps=1e-05, momentum=0.1, affine=True, track_running_stats=True) (29): Conv2d(128, 128, kernel_size=(3, 3), stride=(2, 2), padding=(1, 1), bias=False) (30): BatchNorm2d(128, eps=1e-05, momentum=0.1, affine=True, track_running_stats=True) (31): Conv2d(128, 512, kernel_size=(1, 1), stride=(1, 1), bias=False) (32): BatchNorm2d(512, eps=1e-05, momentum=0.1, affine=True, track_running_stats=True) (33): ReLU(inplace=True) (34): Conv2d(256, 512, kernel_size=(1, 1), stride=(2, 2), bias=False) (35): BatchNorm2d(512, eps=1e-05, momentum=0.1, affine=True, track_running_stats=True) (36): Conv2d(512, 128, kernel_size=(1, 1), stride=(1, 1), bias=False) (37): BatchNorm2d(128, eps=1e-05, momentum=0.1, affine=True, track_running_stats=True) (38): Conv2d(128, 128, kernel_size=(3, 3), stride=(1, 1), padding=(1, 1), bias=False) (39): BatchNorm2d(128, eps=1e-05, momentum=0.1, affine=True, track_running_stats=True) (40): Conv2d(128, 512, kernel_size=(1, 1), stride=(1, 1), bias=False) (41): BatchNorm2d(512, eps=1e-05, momentum=0.1, affine=True, track_running_stats=True) (42): ReLU(inplace=True) (43): Conv2d(512, 128, kernel_size=(1, 1), stride=(1, 1), bias=False) (44): BatchNorm2d(128, eps=1e-05, momentum=0.1, affine=True, track_running_stats=True) (45): Conv2d(128, 128, kernel_size=(3, 3), stride=(1, 1), padding=(1, 1), bias=False) (46): BatchNorm2d(128, eps=1e-05, momentum=0.1, affine=True, track_running_stats=True) (47): Conv2d(128, 512, kernel_size=(1, 1), stride=(1, 1), bias=False) (48): BatchNorm2d(512, eps=1e-05, momentum=0.1, affine=True, track_running_stats=True) (49): ReLU(inplace=True) (50): Conv2d(512, 128, kernel_size=(1, 1), stride=(1, 1), bias=False) (51): BatchNorm2d(128, eps=1e-05, momentum=0.1, affine=True, track_running_stats=True) (52): Conv2d(128, 128, kernel_size=(3, 3), stride=(1, 1), padding=(1, 1), bias=False) (53): BatchNorm2d(128, eps=1e-05, momentum=0.1, affine=True, track_running_stats=True) (54): Conv2d(128, 512, kernel_size=(1, 1), stride=(1, 1), bias=False) (55): BatchNorm2d(512, eps=1e-05, momentum=0.1, affine=True, track_running_stats=True) (56): ReLU(inplace=True) ), Sequential( (57): Conv2d(512, 256, kernel_size=(1, 1), stride=(1, 1), bias=False) (58): BatchNorm2d(256, eps=1e-05, momentum=0.1, affine=True, track_running_stats=True) (59): Conv2d(256, 256, kernel_size=(3, 3), stride=(2, 2), padding=(1, 1), bias=False) (60): BatchNorm2d(256, eps=1e-05, momentum=0.1, affine=True, track_running_stats=True) (61): Conv2d(256, 1024, kernel_size=(1, 1), stride=(1, 1), bias=False) (62): BatchNorm2d(1024, eps=1e-05, momentum=0.1, affine=True, track_running_stats=True) (63): ReLU(inplace=True) (64): Conv2d(512, 1024, kernel_size=(1, 1), stride=(2, 2), bias=False) (65): BatchNorm2d(1024, eps=1e-05, momentum=0.1, affine=True, track_running_stats=True) (66): Conv2d(1024, 256, kernel_size=(1, 1), stride=(1, 1), bias=False) (67): BatchNorm2d(256, eps=1e-05, momentum=0.1, affine=True, track_running_stats=True) (68): Conv2d(256, 256, kernel_size=(3, 3), stride=(1, 1), padding=(1, 1), bias=False) (69): BatchNorm2d(256, eps=1e-05, momentum=0.1, affine=True, track_running_stats=True) (70): Conv2d(256, 1024, kernel_size=(1, 1), stride=(1, 1), bias=False) (71): BatchNorm2d(1024, eps=1e-05, momentum=0.1, affine=True, track_running_stats=True) (72): ReLU(inplace=True) (73): Conv2d(1024, 256, kernel_size=(1, 1), stride=(1, 1), bias=False) (74): BatchNorm2d(256, eps=1e-05, momentum=0.1, affine=True, track_running_stats=True) (75): Conv2d(256, 256, kernel_size=(3, 3), stride=(1, 1), padding=(1, 1), bias=False) (76): BatchNorm2d(256, eps=1e-05, momentum=0.1, affine=True, track_running_stats=True) (77): Conv2d(256, 1024, kernel_size=(1, 1), stride=(1, 1), bias=False) (78): BatchNorm2d(1024, eps=1e-05, momentum=0.1, affine=True, track_running_stats=True) (79): ReLU(inplace=True) (80): Conv2d(1024, 256, kernel_size=(1, 1), stride=(1, 1), bias=False) (81): BatchNorm2d(256, eps=1e-05, momentum=0.1, affine=True, track_running_stats=True) (82): Conv2d(256, 256, kernel_size=(3, 3), stride=(1, 1), padding=(1, 1), bias=False) (83): BatchNorm2d(256, eps=1e-05, momentum=0.1, affine=True, track_running_stats=True) (84): Conv2d(256, 1024, kernel_size=(1, 1), stride=(1, 1), bias=False) (85): BatchNorm2d(1024, eps=1e-05, momentum=0.1, affine=True, track_running_stats=True) (86): ReLU(inplace=True) (87): Conv2d(1024, 256, kernel_size=(1, 1), stride=(1, 1), bias=False) (88): BatchNorm2d(256, eps=1e-05, momentum=0.1, affine=True, track_running_stats=True) (89): Conv2d(256, 256, kernel_size=(3, 3), stride=(1, 1), padding=(1, 1), bias=False) (90): BatchNorm2d(256, eps=1e-05, momentum=0.1, affine=True, track_running_stats=True) (91): Conv2d(256, 1024, kernel_size=(1, 1), stride=(1, 1), bias=False) (92): BatchNorm2d(1024, eps=1e-05, momentum=0.1, affine=True, track_running_stats=True) (93): ReLU(inplace=True) (94): Conv2d(1024, 256, kernel_size=(1, 1), stride=(1, 1), bias=False) (95): BatchNorm2d(256, eps=1e-05, momentum=0.1, affine=True, track_running_stats=True) (96): Conv2d(256, 256, kernel_size=(3, 3), stride=(1, 1), padding=(1, 1), bias=False) (97): BatchNorm2d(256, eps=1e-05, momentum=0.1, affine=True, track_running_stats=True) (98): Conv2d(256, 1024, kernel_size=(1, 1), stride=(1, 1), bias=False) (99): BatchNorm2d(1024, eps=1e-05, momentum=0.1, affine=True, track_running_stats=True) (100): ReLU(inplace=True) (101): Conv2d(1024, 512, kernel_size=(1, 1), stride=(1, 1), bias=False) (102): BatchNorm2d(512, eps=1e-05, momentum=0.1, affine=True, track_running_stats=True) (103): Conv2d(512, 512, kernel_size=(3, 3), stride=(2, 2), padding=(1, 1), bias=False) (104): BatchNorm2d(512, eps=1e-05, momentum=0.1, affine=True, track_running_stats=True) (105): Conv2d(512, 2048, kernel_size=(1, 1), stride=(1, 1), bias=False) (106): BatchNorm2d(2048, eps=1e-05, momentum=0.1, affine=True, track_running_stats=True) (107): ReLU(inplace=True) (108): Conv2d(1024, 2048, kernel_size=(1, 1), stride=(2, 2), bias=False) (109): BatchNorm2d(2048, eps=1e-05, momentum=0.1, affine=True, track_running_stats=True) (110): Conv2d(2048, 512, kernel_size=(1, 1), stride=(1, 1), bias=False) (111): BatchNorm2d(512, eps=1e-05, momentum=0.1, affine=True, track_running_stats=True) (112): Conv2d(512, 512, kernel_size=(3, 3), stride=(1, 1), padding=(1, 1), bias=False) (113): BatchNorm2d(512, eps=1e-05, momentum=0.1, affine=True, track_running_stats=True) (114): Conv2d(512, 2048, kernel_size=(1, 1), stride=(1, 1), bias=False) (115): BatchNorm2d(2048, eps=1e-05, momentum=0.1, affine=True, track_running_stats=True) (116): ReLU(inplace=True) (117): Conv2d(2048, 512, kernel_size=(1, 1), stride=(1, 1), bias=False) (118): BatchNorm2d(512, eps=1e-05, momentum=0.1, affine=True, track_running_stats=True) (119): Conv2d(512, 512, kernel_size=(3, 3), stride=(1, 1), padding=(1, 1), bias=False) (120): BatchNorm2d(512, eps=1e-05, momentum=0.1, affine=True, track_running_stats=True) (121): Conv2d(512, 2048, kernel_size=(1, 1), stride=(1, 1), bias=False) (122): BatchNorm2d(2048, eps=1e-05, momentum=0.1, affine=True, track_running_stats=True) (123): ReLU(inplace=True) ), Sequential( (124): AdaptiveAvgPool2d(output_size=(1, 1)) (125): AdaptiveMaxPool2d(output_size=(1, 1)) (126): Flatten() (127): BatchNorm1d(4096, eps=1e-05, momentum=0.1, affine=True, track_running_stats=True) (128): Dropout(p=0.25, inplace=False) (129): Linear(in_features=4096, out_features=512, bias=True) (130): ReLU(inplace=True) (131): BatchNorm1d(512, eps=1e-05, momentum=0.1, affine=True, track_running_stats=True) (132): Dropout(p=0.5, inplace=False) (133): Linear(in_features=512, out_features=397, bias=True) )], add_time=True, silent=False) . learner.validate(metrics=[accuracy]) . [1.0724795, tensor(0.6931)] . Final Accuray on test set . 69.31% .",
            "url": "https://isbhargav.github.io/portfolio/jupyter/pytorch/fastai/transfer-learning/discriminative-learning-rate/one-cycle-policy/2020/03/12/Image-calssification-sun397.html",
            "relUrl": "/jupyter/pytorch/fastai/transfer-learning/discriminative-learning-rate/one-cycle-policy/2020/03/12/Image-calssification-sun397.html",
…
